…
# model.append(linear1)
# model.append(torch.nn.ReLU())
# model.append(torch.nn.Dropout())
#
# n_classes = 2
# output_layer = torch.nn.Linear(in_features=500, out_features=n_classes)
# model.append(output_layer)
#
# summary(model, input_size=(batch_size, 3, 224, 224))

    # output cnn
    # ==========================================================================================
    # Layer (type:depth-idx)                   Output Shape              Param #
    # ==========================================================================================
    # Sequential                               [32, 2]                   --
    # ├─Conv2d: 1-1                            [32, 16, 224, 224]        448
    # ├─ReLU: 1-2                              [32, 16, 224, 224]        --
    # ├─MaxPool2d: 1-3                         [32, 16, 56, 56]          --
    # ├─Conv2d: 1-4                            [32, 32, 56, 56]          4,640
    # ├─ReLU: 1-5                              [32, 32, 56, 56]          --
    # ├─MaxPool2d: 1-6                         [32, 32, 14, 14]          --
    # ├─Conv2d: 1-7                            [32, 64, 14, 14]          18,496
    # ├─ReLU: 1-8                              [32, 64, 14, 14]          --
    # ├─MaxPool2d: 1-9                         [32, 64, 3, 3]            --
    # ├─Flatten: 1-10                          [32, 576]                 --
    # ├─Dropout: 1-11                          [32, 576]                 --
    # ├─Linear: 1-12                           [32, 500]                 288,500
    # ├─ReLU: 1-13                             [32, 500]                 --
    # ├─Dropout: 1-14                          [32, 500]                 --
    # ├─Linear: 1-15                           [32, 2]                   1,002
    # ==========================================================================================
    # Total params: 313,086
    # Trainable params: 313,086
    # Non-trainable params: 0
    # Total mult-adds (Units.GIGABYTES): 1.31
    # ==========================================================================================
    # Input size (MB): 19.27
    # Forward/backward pass size (MB): 234.55
…
